…
n the opposite order: `optimizer.step()` before `lr_scheduler.step()`.  Failure to do this will result in PyTorch skipping the first value of the learning rate schedule. See more details at https://pytorch.org/docs/stable/optim.html#how-to-adjust-learning-rate
  warnings.warn(
Namespace(exp_name='r_alpha_s43_e300', batch_size=96, epochs=300, no_cuda=False, seed=43, log_interval=20, test_interval=1, outf='qm9/logs', lr=0.001, nf=128, attention=1, n_layers=7, property='alpha', num_workers=0, charge_power=2, dataset_paper='cormorant', node_attr=0, weight_decay=1e-16, cuda=True)
EGNN(
  (embedding): Linear(in_features=15, out_features=128, bias=True)
  (gcl_0): E_GCL_mask(
    (edge_mlp): Sequential(
      (0): Linear(in_features=257, out_features=128, bias=True)
      (1): SiLU()
      (2): Linear(in_features=128, out_features=128, bias=True)
      (3): SiLU()
    )
    (node_mlp): Sequential(
      (0): Linear(in_features=256, out_features=128, bias=True)
      (1): SiLU()
      (2): Linear(in_features=128, out_features=128, bias=True)
    )
    (att_mlp): Sequential(
      (0): Linear(in_features=128, out_features=1, bias=True)
      (1): Sigmoid()
    )
    (act_fn): SiLU()
  )
  (gcl_1): E_GCL_mask(
    (edge_mlp): Sequential(
      (0): Linear(in_features=257, out_features=128, bias=True)
      (1): SiLU()
      (2): Linear(in_features=128, out_features=128, bias=True)
      (3): SiLU()
    )
    (node_mlp): Sequential(
      (0): Linear(in_features=256, out_features=128, bias=True)
      (1): SiLU()
      (2): Linear(in_features=128, out_features=128, bias=True)
    )
    (att_mlp): Sequential(
      (0): Linear(in_features=128, out_features=1, bias=True)
      (1): Sigmoid()
    )
    (act_fn): SiLU()
  )
  (gcl_2): E_GCL_mask(
    (edge_mlp): Sequential(
      (0): Linear(in_features=257, out_features=128, bias=True)
      (1): SiLU()
      (2): Linear(in_features=128, out_features=128, bias=True)
      (3): SiLU()
    )
    (node_mlp): Sequential(
      (0): Linear(in_features=256, out_features=128, bias=True)
      (1): SiLU()
      (2): Linear(in_features=128, out_features=128, bias=True)
    )
    (att_mlp): Sequential(
      (0): Linear(in_features=128, out_features=1, bias=True)
      (1): Sigmoid()
    )
    (act_fn): SiLU()
  )
  (gcl_3): E_GCL_mask(
    (edge_mlp): Sequential(
      (0): Linear(in_features=257, out_features=128, bias=True)
      (1): SiLU()
      (2): Linear(in_features=128, out_features=128, bias=True)
      (3): SiLU()
    )
    (node_mlp): Sequential(
      (0): Linear(in_features=256, out_features=128, bias=True)
      (1): SiLU()
      (2): Linear(in_features=128, out_features=128, bias=True)
    )
    (att_mlp): Sequential(
      (0): Linear(in_features=128, out_features=1, bias=True)
      (1): Sigmoid()
    )
    (act_fn): SiLU()
  )
  (gcl_4): E_GCL_mask(
    (edge_mlp): Sequential(
      (0): Linear(in_features=257, out_features=128, bias=True)
      (1): SiLU()
      (2): Linear(in_features=128, out_features=128, bias=True)
      (3): SiLU()
    )
    (node_mlp): Sequential(
      (0): Linear(in_features=256, out_features=128, bias=True)
      (1): SiLU()
      (2): Linear(in_features=128, out_features=128, bias=True)
    )
    (att_mlp): Sequential(
      (0): Linear(in_features=128, out_features=1, bias=True)
      (1): Sigmoid()
    )
    (act_fn): SiLU()
  )
  (gcl_5): E_GCL_mask(
    (edge_mlp): Sequential(
      (0): Linear(in_features=257, out_features=128, bias=True)
      (1): SiLU()
      (2): Linear(in_features=128, out_features=128, bias=True)
      (3): SiLU()
    )
    (node_mlp): Sequential(
      (0): Linear(in_features=256, out_features=128, bias=True)
      (1): SiLU()
      (2): Linear(in_features=128, out_features=128, bias=True)
    )
    (att_mlp): Sequential(
      (0): Linear(in_features=128, out_features=1, bias=True)
      (1): Sigmoid()
    )
    (act_fn): SiLU()
  )
  (gcl_6): E_GCL_mask(
    (edge_mlp): Sequential(
      (0): Linear(in_features=257, out_features=128, bias=True)
      (1): SiLU()
      (2): Linear(in_features=128, out_features=128, bias=True)
      (3): SiLU()
    )
    (node_mlp): Sequential(
      (0): Linear(in_features=256, out_features=128, bias=True)
      (1): SiLU()
      (2): Linear(in_features=128, out_features=128, bias=True)
    )
    (att_mlp): Sequential(
      (0): Linear(in_features=128, out_features=1, bias=True)
      (1): Sigmoid()
    )
    (act_fn): SiLU()
  )
  (node_dec): Sequential(
    (0): Linear(in_features=128, out_features=128, bias=True)
    (1): SiLU()
    (2): Linear(in_features=128, out_features=128, bias=True)
  )
  (graph_dec): Sequential(
    (0): Linear(in_features=128, out_features=128, bias=True)
    (1): SiLU()
    (2): Linear(in_features=128, out_features=1, bias=True)
  )
)
Epoch 0 	 Iteration 0 	 loss 0.9609
Epoch 0 	 Iteration 20 	 loss 0.6747
Epoch 0 	 Iteration 40 	 loss 0.4817
Epoch 0 	 Iteration 60 	 loss 0.4147
Epoch 0 	 Iteration 80 	 loss 0.3837
Epoch 0 	 Iteration 100 	 loss 0.3747
Epoch 0 	 Iteration 120 	 loss 0.3342
Epoch 0 	 Iteration 140 	 loss 0.2926
Epoch 0 	 Iteration 160 	 loss 0.4036
Epoch 0 	 Iteration 180 	 loss 0.2984
…
